…
model.add(Conv2D(64, (3,3), activation="relu"))
model.add(MaxPooling2D(pool_size = (2,2)))
model.add(Flatten())
model.add(Dropout(0.2))
model.add(Dense(128,activation="relu"))
model.add(Dropout(0.2))
model.add(Dense(3, activation="softmax"))

model.compile(
    optimizer = "adam",
    loss = "sparse_categorical_crossentropy",
    metrics = ['accuracy']
)

model.summary()
Model: "sequential"
_________________________________________________________________
Layer (type)                 Output Shape              Param #   
=================================================================
conv2d (Conv2D)              (None, 222, 222, 16)      448       
_________________________________________________________________
max_pooling2d (MaxPooling2D) (None, 111, 111, 16)      0         
_________________________________________________________________
conv2d_1 (Conv2D)            (None, 109, 109, 32)      4640      
_________________________________________________________________
max_pooling2d_1 (MaxPooling2 (None, 54, 54, 32)        0         
_________________________________________________________________
conv2d_2 (Conv2D)            (None, 52, 52, 64)        18496     
_________________________________________________________________
max_pooling2d_2 (MaxPooling2 (None, 26, 26, 64)        0         
_________________________________________________________________
flatten (Flatten)            (None, 43264)             0         
_________________________________________________________________
dropout (Dropout)            (None, 43264)             0         
_________________________________________________________________
dense (Dense)                (None, 128)               5537920   
_________________________________________________________________
dropout_1 (Dropout)          (None, 128)               0         
_________________________________________________________________
dense_1 (Dense)              (None, 3)                 387       
=================================================================
Total params: 5,561,891
Trainable params: 5,561,891
Non-trainable params: 0
_________________________________________________________________
EPOCHS=70
history = model.fit_generator(train_data_gen, epochs=EPOCHS, validation_data=val_data_gen)
/usr/local/lib/python3.7/dist-packages/keras/engine/training.py:1972: UserWarning: `Model.fit_generator` is deprecated and will be removed in a future version. Please use `Model.fit`, which supports generators.
…
